pca_steering_results/pca_layer_16.npz (npz, 304476 bytes, 2 tensors)

components (column-major) f4 [20, 4096]
0	0xbc068bf1	-0.008212076
1	0xbc84b8bc	-0.01620137
2	0x3bd31ac0	0.006442398
3	0xbd0d8463	-0.034550082
4	0xbc77ffd7	-0.015136681
5	0xbc4b4156	-0.012405714
6	0xbd0541e1	-0.03253353
7	0x3c770ea2	0.015079172
8	0xbc96d938	-0.018414125
9	0xbaa9e963	-0.0012963231
10	0xbcac81ae	-0.02105793
11	0xbc8ef7fd	-0.017452234
12	0xbbfd7fcc	-0.007736182
13	0x3c09e574	0.008416522
14	0xbbc52ad6	-0.0060170693
15	0x3bc47774	0.0059956852
16	0x3c8fe420	0.017564833
17	0x3c065f67	0.008201457
18	0x3a61ef60	0.00086187385
19	0xbbb278a6	-0.0054465113
20	0xbbec1090	-0.007204123
21	0xbcb58a24	-0.022160597
22	0xbcd4a337	-0.025956733
23	0xbcb9893d	-0.022648448
24	0xbcb8e5ab	-0.022570452
25	0xbb0649b8	-0.0020490717
26	0x3cb62fda	0.022239614
27	0x3c980fff	0.018562315
28	0xbb32d89b	-0.0027289751
29	0xbc6b2767	-0.014352656
30	0x3b80ee5e	0.0039346656
31	0x3c57afd4	0.013164479
32	0xbbda3ec7	-0.0066603157
33	0xbc067027	-0.00820545
34	0x3ccc0f95	0.024909774
35	0x3b4fb90e	0.0031695995
36	0xbc9260e8	-0.017868474
37	0x3a2ec7d8	0.0006667352
38	0x3b419943	0.0029540814
39	0xbc4db695	-0.012555738
40	0x3b3c5996	0.002873992
41	0x3bc376cd	0.00596509
42	0x3bbd85d2	0.005783775
43	0xbbe26f06	-0.0069102077
44	0xbaeab578	-0.0017906865
45	0xbc94281e	-0.018085536
46	0xbc135bc2	-0.008994045
47	0x3bbe4c4e	0.005807436
48	0xbc9f56d8	-0.01945059
49	0x3cdaa9b0	0.026692241
50	0x3c083918	0.008314393
51	0x3bc2b088	0.0059414543
52	0xbd260f30	-0.040541828
53	0xbc816c3e	-0.015798684
54	0xbc20d290	-0.009815827
55	0xbd7b0ef3	-0.061293554
56	0xbc6fb9bd	-0.014631686
57	0xbbdc7c88	-0.0067287125
58	0xbc351650	-0.011052683
59	0xbc8c5e2d	-0.01713475
60	0xba86de42	-0.0010289627
61	0xbb24900c	-0.0025110273
62	0xbbdf909f	-0.00682266
63	0x3b8df7e6	0.0043325303
64	0xbc4d2bef	-0.012522682
65	0x3c427ad8	0.011870109
66	0x3b9a9548	0.0047175027
67	0x3c7efff3	0.015563953
68	0xbc9dc1ab	-0.019257387
69	0xbc9414e4	-0.018076368
70	0xbc2fd757	-0.010732493
71	0x3bd6dc9a	0.0065570595
72	0x3bbb2f85	0.005712452
73	0xbc7a2d7c	-0.015269633
74	0xbc07ce2a	-0.008288899
75	0x3c329b76	0.010901323
76	0xbb090b22	-0.0020911177
77	0x3c6c35b1	0.014417098
78	0x3bef0959	0.0072948155
79	0x3bd1dfc8	0.0064048506
80	0x3b83ae73	0.0040185987
81	0x3c00f1bf	0.007870137
82	0x3c9fa736	0.019488912
83	0x3c83cadd	0.016087944
84	0xbc97d120	-0.018532336
85	0x3c2c46ae	0.010514898
86	0x3cec9720	0.028880656
87	0x3a5ccbb2	0.0008422687
88	0x3c171ea6	0.009223616
89	0xbc88cd52	-0.016699467
90	0xbd058dd2	-0.032605954
91	0x3c152510	0.009103075
92	0xb9e7e170	-0.00044227717
93	0x3c84d109	0.016212957
94	0x3cb26ad6	0.021779459
95	0x3ace04e0	0.0015718006
96	0xbc4f5a2c	-0.012655776
97	0xbb4b7908	-0.0031047482
98	0xbcb40ee6	-0.02197976
99	0x3c898d7f	0.016791103
100	0x3aa00f63	0.0012211617
101	0x3aa2fe54	0.0012435415
102	0xbc9ee376	-0.019395571
103	0xbd014cad	-0.031567264
104	0x3b41b68c	0.002955827
105	0x39b9636c	0.00035360025
106	0xb7aac7f4	-2.035869e-05
107	0x3d17b540	0.037038088
108	0xbc80feca	-0.015746493
109	0x3bf6376c	0.007513931
110	0xb98901f0	-0.0002613212
111	0x3cd17e79	0.025573002
112	0x3a07c76c	0.00051795575
113	0x3c66b612	0.014081495
114	0x3b6c6c49	0.0036075285
115	0x3b82a326	0.003986734
116	0x3c47ab06	0.012186771
117	0xbb670fa4	-0.0035257125
118	0x3cb1a2f8	0.021684155
119	0xbb203810	-0.0024447478
120	0x3b5d94d0	0.0033810623
121	0x3ba587a7	0.0050515714
122	0xbb2ba222	-0.0026189168
123	0xbb1d986a	-0.0024047145
124	0x3c38abe0	0.011271447
125	0xbc052731	-0.00812702
126	0xba97a850	-0.0011570547
127	0xbca6c190	-0.02035597
128	0xbc089089	-0.008335241
129	0x3c1f6dbc	0.009730753
130	0x3cbff61e	0.023432788
131	0x3b55b085	0.0032606435
132	0x3bae7331	0.0053237905
133	0xbc2d4314	-0.010575075
134	0x3c4d11c6	0.012516445
135	0x3ad35c7c	0.0016125585
136	0xbabe5928	-0.001452242
137	0x3c60d8fb	0.013723607
138	0x3cf807ce	0.030277159
139	0x3bf28492	0.0074010575
140	0x3b23608e	0.0024929377
141	0x3b9f6673	0.004864508
142	0x3ac2c15a	0.0014858649
143	0x3bd912e0	0.0066245645
144	0xbc8fcd1a	-0.017553855
145	0xbbf16db3	-0.0073678135
146	0xbb0f6da0	-0.002188541
147	0xbc6bfcd3	-0.01440354
148	0xbb281127	-0.002564499
149	0x3c802cdb	0.015646389
150	0x3c6c4473	0.014420616
151	0xbc7d1d38	-0.015448861
152	0xbb044791	-0.0020184258
153	0x3b50c99a	0.0031858445
154	0x3c06d804	0.008230213
155	0xbb1b1907	-0.002366604
156	0xbab3963c	-0.001370139
157	0x3c53157d	0.012883541
158	0x3b2eff1a	0.0026702345
159	0x3cc36d80	0.023855925
160	0xbac05ecf	-0.0014676693
161	0xbad4703b	-0.0016207764
162	0xbcc6625e	-0.024216827
163	0xbc0ab529	-0.0084660435
164	0xbc52d062	-0.012867065
165	0xbc8a84f4	-0.0169091
166	0x3ccd9f08	0.025100246
167	0x3b70410a	0.003665986
168	0x3b6f675d	0.0036530115
169	0xbcb9ec50	-0.02269569
170	0x3c20b562	0.00980887
171	0x3cb64a3c	0.022252195
172	0x3c06f419	0.008236908
173	0xbc15b29d	-0.009136823
174	0xbcc5f9c7	-0.024166955
175	0x3a28aec4	0.00064347335
176	0x3b419595	0.002953862
177	0xbafef190	-0.0019450653
178	0xbc6e5e85	-0.014548902
179	0xbb8e5b82	-0.0043444047
180	0x3bf9b222	0.007620112
181	0x3c602715	0.013681193
182	0xbc155948	-0.009115525
183	0xbc23287e	-0.009958385
184	0xbcc3b6f3	-0.023890948
185	0xbc5762fa	-0.013146156
186	0x3cf8bad4	0.030362524
187	0x3c67252e	0.014107985
188	0xbc470514	-0.012147207
189	0x3b97e0b4	0.004634941
190	0x3bd71f18	0.006564986
191	0x3c878458	0.016542599
192	0x3a2fbd20	0.0006703902
193	0x3d0d7f61	0.034545306
194	0x3bcd4085	0.006263795
195	0x3bc5a86e	0.0060320413
196	0x3cbc2412	0.022966418
197	0xbd3221a7	-0.043489125
198	0x3b41bb9c	0.0029561287
199	0x3c19c009	0.009384164
200	0xbb4e6ad2	-0.0031496775
201	0xbc0e965e	-0.0087028425
202	0x3c27e1e8	0.010246731
203	0xbaac7ca0	-0.00131597
204	0x3bd58648	0.0065162517
205	0x3bec765d	0.0072162584
206	0xbbcd9b2f	-0.006274603
207	0x3bc56bf2	0.006024831
208	0x3b7eb014	0.0038862275
209	0x3ca602a5	0.020264933
210	0x3c16ecf0	0.009211764
211	0x3b4b3fa9	0.0031013286
212	0x3c9f04fa	0.019411553
213	0xbc3fa2fb	-0.011696572
214	0x3c8b7d86	0.017027628
215	0xbbbf301d	-0.005834593
216	0xbc568f94	-0.013095755
217	0x3a5e90f4	0.00084902276
218	0x38c4cfe0	9.384728e-05
219	0xbc4a307b	-0.01234066
220	0xb9f47546	-0.00046626682
221	0x3b4c6ae9	0.0031191653
222	0x3bc394dd	0.0059686736
223	0x3cdc35be	0.026881095
224	0xbb509d44	-0.003183202
225	0x3c453331	0.012036131
226	0x3b7fd05c	0.0039034104
227	0x3cca46e3	0.024692005
228	0xbba4bf64	-0.0050276984
229	0xbbed5b78	-0.00724357
230	0xbcad3181	-0.02114177
231	0xbba2fcbb	-0.0049739755
232	0xbbb351c6	-0.0054723946
233	0xba6bbf60	-0.00089930557
234	0x3b8cc008	0.004295353
235	0xbbe50676	-0.0069892956
236	0x3ca9beec	0.020720921
237	0x3ca832c1	0.020532014
238	0xbbdeb6ee	-0.0067967093
239	0x3bc177b3	0.005904162
240	0x3bbba05f	0.005725905
241	0x3bfcd5a9	0.0077159
242	0x3cfa7a34	0.03057585
243	0x3a97b3d7	0.0011573982
244	0x3b64c200	0.0034905672
245	0xbad44436	-0.0016194645
246	0xbc34cc34	-0.011035014
247	0x3c8d42fa	0.017243851
248	0xbc484aec	-0.012224894
249	0xbc41e7de	-0.011835067
250	0x3cb0624c	0.021531247
251	0x3c9721d8	0.018448755
252	0xbbe6638f	-0.0070309113
253	0xbc7d2562	-0.015450807
254	0xbbd623d8	-0.0065350346
255	0x3b647c6d	0.0034864203

explained_variance f4 [20]
0	0x4404611a	529.5172
1	0x42f526d6	122.57585
2	0x4121216e	10.070662
3	0x40f27910	7.577278
4	0x40c15da5	6.042681
5	0x40b07285	5.5139794
6	0x408aeb13	4.3411956
7	0x406fec41	3.7487948
8	0x4049c0b3	3.1523864
9	0x4037dcc1	2.8728487
10	0x402deb61	2.7174914
11	0x4015e989	2.3423789
12	0x4007b0a5	2.1201565
13	0x4001e6e9	2.0297186
14	0x3ff0b2fc	1.8804622
15	0x3fd40a28	1.65656
16	0x3fc2baaf	1.5213221
17	0x3fa5a201	1.2940065
18	0x3f9a0221	1.20319
19	0x3f93f6d2	1.1559699
